…
                    loss='categorical_crossentropy',
                    metrics = [tf.keras.metrics.AUC()])

        return model

    model = define_compile_model()
    clear_output()
    model.summary()

    Model: "model"
    _________________________________________________________________
     Layer (type)                Output Shape              Param #   
    =================================================================
     input_1 (InputLayer)        [(None, 64, 64, 3)]       0         
                                                                     
     densenet121 (Functional)    (None, 2, 2, 1024)        7037504   
                                                                     
     global_average_pooling2d (  (None, 1024)              0         
     GlobalAveragePooling2D)                                         
                                                                     
     dense (Dense)               (None, 256)               262400    
                                                                     
     dropout (Dropout)           (None, 256)               0         
                                                                     
     dense_1 (Dense)             (None, 1024)              263168    
                                                                     
     dropout_1 (Dropout)         (None, 1024)              0         
                                                                     
     dense_2 (Dense)             (None, 512)               524800    
                                                                     
     dropout_2 (Dropout)         (None, 512)               0         
                                                                     
     classification (Dense)      (None, 14)                7182      
                                                                     
    =================================================================
    Total params: 8095054 (30.88 MB)
    Trainable params: 8011406 (30.56 MB)
    Non-trainable params: 83648 (326.75 KB)
    _________________________________________________________________

 Training 

    history = model.fit(x = train_generator,validation_data=test_generator,epochs = EPOCHS)
…
